<?xml version="1.0" ?>
<net name="nn_kmeans-2D" version="7">
	<layers>
		<layer id="0" name="conv2d_9_input" type="Input">
			<output>
				<port id="0" precision="FP16">
					<dim>1</dim>
					<dim>1</dim>
					<dim>384</dim>
					<dim>2304</dim>
				</port>
			</output>
		</layer>
		<layer id="1" name="conv2d_9/Conv2D" type="Convolution">
			<data auto_pad="valid" dilations="1,1" group="1" kernel="1,6" output="8" pads_begin="0,0" pads_end="0,0" strides="1,6"/>
			<input>
				<port id="0">
					<dim>1</dim>
					<dim>1</dim>
					<dim>384</dim>
					<dim>2304</dim>
				</port>
			</input>
			<output>
				<port id="3" precision="FP16">
					<dim>1</dim>
					<dim>8</dim>
					<dim>384</dim>
					<dim>384</dim>
				</port>
			</output>
			<blobs>
				<weights offset="0" precision="FP16" size="96"/>
				<biases offset="96" precision="FP16" size="16"/>
			</blobs>
		</layer>
		<layer id="2" name="conv2d_9/Relu" type="ReLU">
			<input>
				<port id="0">
					<dim>1</dim>
					<dim>8</dim>
					<dim>384</dim>
					<dim>384</dim>
				</port>
			</input>
			<output>
				<port id="1" precision="FP16">
					<dim>1</dim>
					<dim>8</dim>
					<dim>384</dim>
					<dim>384</dim>
				</port>
			</output>
		</layer>
		<layer id="3" name="conv2d_10/Conv2D" type="Convolution">
			<data auto_pad="valid" dilations="1,1" group="1" kernel="1,1" output="4" pads_begin="0,0" pads_end="0,0" strides="1,1"/>
			<input>
				<port id="0">
					<dim>1</dim>
					<dim>8</dim>
					<dim>384</dim>
					<dim>384</dim>
				</port>
			</input>
			<output>
				<port id="3" precision="FP16">
					<dim>1</dim>
					<dim>4</dim>
					<dim>384</dim>
					<dim>384</dim>
				</port>
			</output>
			<blobs>
				<weights offset="112" precision="FP16" size="64"/>
				<biases offset="176" precision="FP16" size="8"/>
			</blobs>
		</layer>
		<layer id="4" name="conv2d_10/Relu" type="ReLU">
			<input>
				<port id="0">
					<dim>1</dim>
					<dim>4</dim>
					<dim>384</dim>
					<dim>384</dim>
				</port>
			</input>
			<output>
				<port id="1" precision="FP16">
					<dim>1</dim>
					<dim>4</dim>
					<dim>384</dim>
					<dim>384</dim>
				</port>
			</output>
		</layer>
		<layer id="5" name="conv2d_11/Conv2D" type="Convolution">
			<data auto_pad="valid" dilations="1,1" group="1" kernel="1,1" output="1" pads_begin="0,0" pads_end="0,0" strides="1,1"/>
			<input>
				<port id="0">
					<dim>1</dim>
					<dim>4</dim>
					<dim>384</dim>
					<dim>384</dim>
				</port>
			</input>
			<output>
				<port id="3" precision="FP16">
					<dim>1</dim>
					<dim>1</dim>
					<dim>384</dim>
					<dim>384</dim>
				</port>
			</output>
			<blobs>
				<weights offset="184" precision="FP16" size="8"/>
				<biases offset="192" precision="FP16" size="2"/>
			</blobs>
		</layer>
		<layer id="6" name="conv2d_11/Relu" type="ReLU">
			<input>
				<port id="0">
					<dim>1</dim>
					<dim>1</dim>
					<dim>384</dim>
					<dim>384</dim>
				</port>
			</input>
			<output>
				<port id="1" precision="FP16">
					<dim>1</dim>
					<dim>1</dim>
					<dim>384</dim>
					<dim>384</dim>
				</port>
			</output>
		</layer>
	</layers>
	<edges>
		<edge from-layer="0" from-port="0" to-layer="1" to-port="0"/>
		<edge from-layer="1" from-port="3" to-layer="2" to-port="0"/>
		<edge from-layer="2" from-port="1" to-layer="3" to-port="0"/>
		<edge from-layer="3" from-port="3" to-layer="4" to-port="0"/>
		<edge from-layer="4" from-port="1" to-layer="5" to-port="0"/>
		<edge from-layer="5" from-port="3" to-layer="6" to-port="0"/>
	</edges>
	<meta_data>
		<MO_version value="2020.1.0-61-gd349c3ba4a"/>
		<cli_parameters>
			<blobs_as_inputs value="True"/>
			<data_type value="FP16"/>
			<disable_nhwc_to_nchw value="False"/>
			<disable_resnet_optimization value="False"/>
			<enable_concat_optimization value="False"/>
			<extensions value="DIR"/>
			<framework value="tf"/>
			<freeze_placeholder_with_value value="{}"/>
			<generate_deprecated_IR_V2 value="False"/>
			<generate_deprecated_IR_V7 value="True"/>
			<generate_experimental_IR_V10 value="False"/>
			<input_model value="DIR/nn_kmeans-2D.pb"/>
			<input_model_is_text value="False"/>
			<input_shape value="[1,384,2304,1]"/>
			<keep_quantize_ops_in_IR value="True"/>
			<keep_shape_ops value="False"/>
			<log_level value="ERROR"/>
			<mean_scale_values value="{}"/>
			<mean_values value="()"/>
			<model_name value="nn_kmeans-2D"/>
			<move_to_preprocess value="False"/>
			<output_dir value="DIR"/>
			<placeholder_data_types value="{}"/>
			<placeholder_shapes value="[   1  384 2304    1]"/>
			<progress value="False"/>
			<reverse_input_channels value="False"/>
			<scale_values value="()"/>
			<silent value="False"/>
			<stream_output value="False"/>
			<unset unset_cli_parameters="batch, disable_fusing, disable_gfusing, finegrain_fusing, input, input_checkpoint, input_meta_graph, output, saved_model_dir, saved_model_tags, scale, tensorboard_logdir, tensorflow_custom_layer_libraries, tensorflow_custom_operations_config_update, tensorflow_object_detection_api_pipeline_config, tensorflow_operation_patterns, tensorflow_subgraph_patterns, tensorflow_use_custom_operations_config, transformations_config"/>
		</cli_parameters>
	</meta_data>
</net>
