…
2020-10-30 06:53:33.848056: I tensorflow/stream_executor/platform/default/dso_loader.cc:44] Successfully opened dynamic library libcublas.so.10.0
2020-10-30 06:53:33.952154: I tensorflow/stream_executor/platform/default/dso_loader.cc:44] Successfully opened dynamic library libcudnn.so.7

TRAINING MODEL audio_classification

Processing data...
Training model...
Model: "sequential"
_________________________________________________________________
Layer (type)                 Output Shape              Param #   
=================================================================
conv2d (Conv2D)              (None, 64, 64, 32)        320       
_________________________________________________________________
conv2d_1 (Conv2D)            (None, 64, 64, 32)        9248      
_________________________________________________________________
max_pooling2d (MaxPooling2D) (None, 32, 32, 32)        0         
_________________________________________________________________
conv2d_2 (Conv2D)            (None, 32, 32, 16)        4624      
_________________________________________________________________
conv2d_3 (Conv2D)            (None, 32, 32, 16)        2320      
_________________________________________________________________
max_pooling2d_1 (MaxPooling2 (None, 16, 16, 16)        0         
_________________________________________________________________
flatten (Flatten)            (None, 4096)              0         
_________________________________________________________________
dropout (Dropout)            (None, 4096)              0         
_________________________________________________________________
dense (Dense)                (None, 32)                131104    
_________________________________________________________________
dropout_1 (Dropout)          (None, 32)                0         
_________________________________________________________________
dense_1 (Dense)              (None, 10)                330       
=================================================================
Total params: 147,946
Trainable params: 147,946
Non-trainable params: 0
_________________________________________________________________
Train on 2160 samples, validate on 240 samples
Epoch 1/100
  32/2160 [..............................] - ETA: 56s - loss: 2.3042 - acc: 0.0938
…
2020-10-30 06:54:44.680406: I tensorflow/stream_executor/platform/default/dso_loader.cc:44] Successfully opened dynamic library libcublas.so.10.0
2020-10-30 06:54:44.795007: I tensorflow/stream_executor/platform/default/dso_loader.cc:44] Successfully opened dynamic library libcudnn.so.7

TRAINING MODEL audio_classification_input-scaling-0.75

Processing data...
Training model...
Model: "sequential"
_________________________________________________________________
Layer (type)                 Output Shape              Param #   
=================================================================
conv2d (Conv2D)              (None, 48, 48, 32)        320       
_________________________________________________________________
conv2d_1 (Conv2D)            (None, 48, 48, 32)        9248      
_________________________________________________________________
max_pooling2d (MaxPooling2D) (None, 24, 24, 32)        0         
_________________________________________________________________
conv2d_2 (Conv2D)            (None, 24, 24, 16)        4624      
_________________________________________________________________
conv2d_3 (Conv2D)            (None, 24, 24, 16)        2320      
_________________________________________________________________
max_pooling2d_1 (MaxPooling2 (None, 12, 12, 16)        0         
_________________________________________________________________
flatten (Flatten)            (None, 2304)              0         
_________________________________________________________________
dropout (Dropout)            (None, 2304)              0         
_________________________________________________________________
dense (Dense)                (None, 32)                73760     
_________________________________________________________________
dropout_1 (Dropout)          (None, 32)                0         
_________________________________________________________________
dense_1 (Dense)              (None, 10)                330       
=================================================================
Total params: 90,602
Trainable params: 90,602
Non-trainable params: 0
_________________________________________________________________
Train on 2160 samples, validate on 240 samples
Epoch 1/100
  32/2160 [..............................] - ETA: 53s - loss: 2.3013 - acc: 0.1562
…
2020-10-30 06:55:37.609471: I tensorflow/stream_executor/platform/default/dso_loader.cc:44] Successfully opened dynamic library libcublas.so.10.0
2020-10-30 06:55:37.715993: I tensorflow/stream_executor/platform/default/dso_loader.cc:44] Successfully opened dynamic library libcudnn.so.7

TRAINING MODEL audio_classification_layers-scaling-0.75

Processing data...
Training model...
Model: "sequential"
_________________________________________________________________
Layer (type)                 Output Shape              Param #   
=================================================================
conv2d (Conv2D)              (None, 64, 64, 24)        240       
_________________________________________________________________
conv2d_1 (Conv2D)            (None, 64, 64, 24)        5208      
_________________________________________________________________
max_pooling2d (MaxPooling2D) (None, 32, 32, 24)        0         
_________________________________________________________________
conv2d_2 (Conv2D)            (None, 32, 32, 12)        2604      
_________________________________________________________________
conv2d_3 (Conv2D)            (None, 32, 32, 12)        1308      
_________________________________________________________________
max_pooling2d_1 (MaxPooling2 (None, 16, 16, 12)        0         
_________________________________________________________________
flatten (Flatten)            (None, 3072)              0         
_________________________________________________________________
dropout (Dropout)            (None, 3072)              0         
_________________________________________________________________
dense (Dense)                (None, 24)                73752     
_________________________________________________________________
dropout_1 (Dropout)          (None, 24)                0         
_________________________________________________________________
dense_1 (Dense)              (None, 10)                250       
=================================================================
Total params: 83,362
Trainable params: 83,362
Non-trainable params: 0
_________________________________________________________________
Train on 2160 samples, validate on 240 samples
Epoch 1/100
  32/2160 [..............................] - ETA: 55s - loss: 2.3018 - acc: 0.0938
…
2020-10-30 06:56:42.147495: I tensorflow/stream_executor/platform/default/dso_loader.cc:44] Successfully opened dynamic library libcublas.so.10.0
2020-10-30 06:56:42.255913: I tensorflow/stream_executor/platform/default/dso_loader.cc:44] Successfully opened dynamic library libcudnn.so.7

TRAINING MODEL audio_classification_pruning-0.5

Processing data...
Training model...
Model: "sequential"
_________________________________________________________________
Layer (type)                 Output Shape              Param #   
=================================================================
prune_low_magnitude_conv2d ( (None, 64, 64, 32)        610       
_________________________________________________________________
prune_low_magnitude_conv2d_1 (None, 64, 64, 32)        18466     
_________________________________________________________________
prune_low_magnitude_max_pool (None, 32, 32, 32)        1         
_________________________________________________________________
prune_low_magnitude_conv2d_2 (None, 32, 32, 16)        9234      
_________________________________________________________________
prune_low_magnitude_conv2d_3 (None, 32, 32, 16)        4626      
_________________________________________________________________
prune_low_magnitude_max_pool (None, 16, 16, 16)        1         
_________________________________________________________________
prune_low_magnitude_flatten  (None, 4096)              1         
_________________________________________________________________
prune_low_magnitude_dropout  (None, 4096)              1         
_________________________________________________________________
prune_low_magnitude_dense (P (None, 32)                262178    
_________________________________________________________________
prune_low_magnitude_dropout_ (None, 32)                1         
_________________________________________________________________
prune_low_magnitude_dense_1  (None, 10)                652       
=================================================================
Total params: 295,771
Trainable params: 147,946
Non-trainable params: 147,825
_________________________________________________________________
Train on 2160 samples, validate on 240 samples
Epoch 1/100
  32/2160 [..............................] - ETA: 1:17 - loss: 2.3039 - acc: 0.0625
…
2020-10-30 06:58:28.802856: I tensorflow/stream_executor/platform/default/dso_loader.cc:44] Successfully opened dynamic library libcublas.so.10.0
2020-10-30 06:58:28.908487: I tensorflow/stream_executor/platform/default/dso_loader.cc:44] Successfully opened dynamic library libcudnn.so.7

TRAINING MODEL audio_classification_sep-conv

Processing data...
Training model...
Model: "sequential"
_________________________________________________________________
Layer (type)                 Output Shape              Param #   
=================================================================
separable_conv2d (SeparableC (None, 64, 64, 32)        73        
_________________________________________________________________
separable_conv2d_1 (Separabl (None, 64, 64, 32)        1344      
_________________________________________________________________
max_pooling2d (MaxPooling2D) (None, 32, 32, 32)        0         
_________________________________________________________________
separable_conv2d_2 (Separabl (None, 32, 32, 16)        816       
_________________________________________________________________
separable_conv2d_3 (Separabl (None, 32, 32, 16)        416       
_________________________________________________________________
max_pooling2d_1 (MaxPooling2 (None, 16, 16, 16)        0         
_________________________________________________________________
flatten (Flatten)            (None, 4096)              0         
_________________________________________________________________
dropout (Dropout)            (None, 4096)              0         
_________________________________________________________________
dense (Dense)                (None, 32)                131104    
_________________________________________________________________
dropout_1 (Dropout)          (None, 32)                0         
_________________________________________________________________
dense_1 (Dense)              (None, 10)                330       
=================================================================
Total params: 134,083
Trainable params: 134,083
Non-trainable params: 0
_________________________________________________________________
Train on 2160 samples, validate on 240 samples
Epoch 1/100
  32/2160 [..............................] - ETA: 55s - loss: 2.3026 - acc: 0.0625
…
2020-10-30 07:02:17.332807: I tensorflow/stream_executor/platform/default/dso_loader.cc:44] Successfully opened dynamic library libcublas.so.10.0
2020-10-30 07:02:17.439770: I tensorflow/stream_executor/platform/default/dso_loader.cc:44] Successfully opened dynamic library libcudnn.so.7

TRAINING MODEL audio_classification_input-scaling-0.75_layers-scaling-0.75_pruning-0.5_sep-conv

Processing data...
Training model...
Model: "sequential"
_________________________________________________________________
Layer (type)                 Output Shape              Param #   
=================================================================
prune_low_magnitude_separabl (None, 48, 48, 24)        83        
_________________________________________________________________
prune_low_magnitude_separabl (None, 48, 48, 24)        1394      
_________________________________________________________________
prune_low_magnitude_max_pool (None, 24, 24, 24)        1         
_________________________________________________________________
prune_low_magnitude_separabl (None, 24, 24, 12)        806       
_________________________________________________________________
prune_low_magnitude_separabl (None, 24, 24, 12)        410       
_________________________________________________________________
prune_low_magnitude_max_pool (None, 12, 12, 12)        1         
_________________________________________________________________
prune_low_magnitude_flatten  (None, 1728)              1         
_________________________________________________________________
prune_low_magnitude_dropout  (None, 1728)              1         
_________________________________________________________________
prune_low_magnitude_dense (P (None, 24)                82970     
_________________________________________________________________
prune_low_magnitude_dropout_ (None, 24)                1         
_________________________________________________________________
prune_low_magnitude_dense_1  (None, 10)                492       
=================================================================
Total params: 86,160
Trainable params: 43,399
Non-trainable params: 42,761
_________________________________________________________________
Train on 2160 samples, validate on 240 samples
Epoch 1/100
  32/2160 [..............................] - ETA: 1:16 - loss: 2.3026 - acc: 0.0312
…
2144/2160 [============================>.] - ETA: 0s - loss: 0.0954 - acc: 0.96222160/2160 [==============================] - 2s 708us/sample - loss: 0.0950 - acc: 0.9625 - val_loss: 0.0556 - val_acc: 0.9875
Model: "sequential"
_________________________________________________________________
Layer (type)                 Output Shape              Param #   
=================================================================
separable_conv2d (SeparableC (None, 48, 48, 24)        57        
_________________________________________________________________
separable_conv2d_1 (Separabl (None, 48, 48, 24)        816       
_________________________________________________________________
max_pooling2d (MaxPooling2D) (None, 24, 24, 24)        0         
_________________________________________________________________
separable_conv2d_2 (Separabl (None, 24, 24, 12)        516       
_________________________________________________________________
separable_conv2d_3 (Separabl (None, 24, 24, 12)        264       
_________________________________________________________________
max_pooling2d_1 (MaxPooling2 (None, 12, 12, 12)        0         
_________________________________________________________________
flatten (Flatten)            (None, 1728)              0         
_________________________________________________________________
dropout (Dropout)            (None, 1728)              0         
_________________________________________________________________
dense (Dense)                (None, 24)                41496     
_________________________________________________________________
dropout_1 (Dropout)          (None, 24)                0         
_________________________________________________________________
dense_1 (Dense)              (None, 10)                250       
=================================================================
Total params: 43,399
Trainable params: 43,399
Non-trainable params: 0
_________________________________________________________________

CONVERTING MODEL TO OPENVINO IR: audio_classification

WARNING:tensorflow:From /usr/local/lib/python3.6/dist-packages/tensorflow_core/python/ops/init_ops.py:97: calling GlorotUniform.__init__ (from tensorflow.python.ops.init_ops) with dtype is deprecated and will be removed in a future version.
…
2020-11-01 06:42:34.373896: I tensorflow/stream_executor/platform/default/dso_loader.cc:44] Successfully opened dynamic library libcublas.so.10.0
2020-11-01 06:42:34.496153: I tensorflow/stream_executor/platform/default/dso_loader.cc:44] Successfully opened dynamic library libcudnn.so.7

TRAINING MODEL audio_classification_input-scaling-0.75_layers-scaling-0.75_pruning-0.5

Processing data...
Training model...
Model: "sequential"
_________________________________________________________________
Layer (type)                 Output Shape              Param #   
=================================================================
prune_low_magnitude_conv2d ( (None, 48, 48, 24)        458       
_________________________________________________________________
prune_low_magnitude_conv2d_1 (None, 48, 48, 24)        10394     
_________________________________________________________________
prune_low_magnitude_max_pool (None, 24, 24, 24)        1         
_________________________________________________________________
prune_low_magnitude_conv2d_2 (None, 24, 24, 12)        5198      
_________________________________________________________________
prune_low_magnitude_conv2d_3 (None, 24, 24, 12)        2606      
_________________________________________________________________
prune_low_magnitude_max_pool (None, 12, 12, 12)        1         
_________________________________________________________________
prune_low_magnitude_flatten  (None, 1728)              1         
_________________________________________________________________
prune_low_magnitude_dropout  (None, 1728)              1         
_________________________________________________________________
prune_low_magnitude_dense (P (None, 24)                82970     
_________________________________________________________________
prune_low_magnitude_dropout_ (None, 24)                1         
_________________________________________________________________
prune_low_magnitude_dense_1  (None, 10)                492       
=================================================================
Total params: 102,123
Trainable params: 51,106
Non-trainable params: 51,017
_________________________________________________________________
Train on 2160 samples, validate on 240 samples
Epoch 1/100
  32/2160 [..............................] - ETA: 1:16 - loss: 2.3022 - acc: 0.1250
…
2112/2160 [============================>.] - ETA: 0s - loss: 0.1080 - acc: 0.96312160/2160 [==============================] - 1s 392us/sample - loss: 0.1085 - acc: 0.9625 - val_loss: 0.0880 - val_acc: 0.9750
Model: "sequential"
_________________________________________________________________
Layer (type)                 Output Shape              Param #   
=================================================================
conv2d (Conv2D)              (None, 48, 48, 24)        240       
_________________________________________________________________
conv2d_1 (Conv2D)            (None, 48, 48, 24)        5208      
_________________________________________________________________
max_pooling2d (MaxPooling2D) (None, 24, 24, 24)        0         
_________________________________________________________________
conv2d_2 (Conv2D)            (None, 24, 24, 12)        2604      
_________________________________________________________________
conv2d_3 (Conv2D)            (None, 24, 24, 12)        1308      
_________________________________________________________________
max_pooling2d_1 (MaxPooling2 (None, 12, 12, 12)        0         
_________________________________________________________________
flatten (Flatten)            (None, 1728)              0         
_________________________________________________________________
dropout (Dropout)            (None, 1728)              0         
_________________________________________________________________
dense (Dense)                (None, 24)                41496     
_________________________________________________________________
dropout_1 (Dropout)          (None, 24)                0         
_________________________________________________________________
dense_1 (Dense)              (None, 10)                250       
=================================================================
Total params: 51,106
Trainable params: 51,106
Non-trainable params: 0
_________________________________________________________________

CONVERTING MODEL TO OPENVINO IR: audio_classification_input-scaling-0.75_layers-scaling-0.75_pruning-0.5

WARNING:tensorflow:From /usr/local/lib/python3.6/dist-packages/tensorflow_core/python/ops/init_ops.py:97: calling GlorotUniform.__init__ (from tensorflow.python.ops.init_ops) with dtype is deprecated and will be removed in a future version.
…
